cat_model.pth (torch, 132372 bytes, 10 tensors)

conv1.weight f4 [16, 3, 3, 3]
0	0x3da2b29a	0.07944222
1	0x3d631294	0.05543764
2	0xbd1fb468	-0.03899041
3	0xbe2ab8d7	-0.16672073
4	0xbe0dddbe	-0.13854119
5	0xbd813eec	-0.063108295
6	0xbe41728a	-0.1889135
7	0xbdbf4c57	-0.093407325
8	0xbe3910ff	-0.1807289
9	0xbc4cdeb0	-0.012504265
10	0x3e34bdc9	0.17650522
11	0x3da5b0fe	0.08090399
12	0x3dedb64a	0.116070345
13	0xbda419cc	-0.08012733
14	0x3d99da22	0.07512309
15	0x3d9f89de	0.07789968
16	0xbdcd3f5d	-0.10021851
17	0xbe0d9ada	-0.13828602
18	0x3df2232a	0.11823113
19	0xbe354420	-0.17701769
20	0xbd4739c0	-0.04863906
21	0xbe401f3a	-0.18761912
22	0x3d627458	0.055286735
23	0xbe34f515	-0.17671616
24	0x3cec1c48	0.02882208
25	0xbe0e86a3	-0.13918547
26	0xbdbd4377	-0.092413835
27	0x3dad554f	0.08463537
28	0x3e011423	0.12605338
29	0xbe010ca0	-0.12602472
30	0x3ddb8fbb	0.10720774
31	0xbe012b8c	-0.12614268
32	0xbdaf2109	-0.08551223
33	0xbe2abb62	-0.16673043
34	0xbdb1a5fa	-0.08674236
35	0x3db14cdb	0.08657237
36	0xbd5df3d9	-0.05418763
37	0xbcb03772	-0.021510813
38	0x3c50bf59	0.012740933
39	0xbd249c2c	-0.040188
40	0x3d60eff4	0.054916337
41	0xbdc7edf0	-0.0976218
42	0xbd0e8c8b	-0.034802
43	0x3c76656c	0.015038829
44	0x3e3d00c7	0.18457328
45	0x3bb1aa23	0.005421893
46	0xbd2a564d	-0.04158621
47	0x3e4c9221	0.19977619
48	0x3e4a9dae	0.19786713
49	0xbe05d55a	-0.13069668
50	0xbe18481a	-0.14871255
51	0xbddbcb8a	-0.10732181
52	0xbd650c4b	-0.055919927
53	0xbde57a72	-0.11204995
54	0xbda30c5a	-0.0796134
55	0x3e416a14	0.18888122
56	0x3d0bd233	0.03413601
57	0x3cb463b4	0.022020198
58	0x3d20a8b9	0.039223406
59	0x3d57f90a	0.052727737
60	0x3d93e5c4	0.07221559
61	0x3e59074b	0.21194188
62	0x3e57e255	0.21082433
63	0xbdb36ecd	-0.08761368
64	0x3e0e92d1	0.13923194
65	0xbdb56f2f	-0.08859097
66	0x3cd464dd	0.025927002
67	0x3c4e9045	0.012607639
68	0xbcc39c3f	-0.023878215
69	0xbe032662	-0.1280761
70	0x3da1c92f	0.07899701
71	0xbd1314c6	-0.035908483
72	0x3d9b5343	0.0758424
73	0x3d9149a1	0.07094122
74	0x3e22529c	0.15851825
75	0x3e1cc943	0.1531115
76	0xbc7f601e	-0.015586881
77	0xbdc54796	-0.096327946
78	0x3bd151ba	0.0063879164
79	0xbdd361c5	-0.103213824
80	0x3e48061d	0.19533582
81	0xbc9b9ad5	-0.018994728
82	0x3dc2d6da	0.09513636
83	0xbe42bd86	-0.1901761
84	0xbd28950e	-0.041157775
85	0x3e08f3a8	0.13374197
86	0xbaf7c9db	-0.0018904762
87	0x3e13c0ef	0.14429067
88	0x3e3c6cb4	0.18400842
89	0xbca4eb34	-0.020131685
90	0xbde1b03f	-0.110199444
91	0xbcc25cc6	-0.023725878
92	0x3d9d29d0	0.07673991
93	0x3e410a65	0.18851621
94	0xbd83f89e	-0.06443904
95	0x3e5b3beb	0.21409576
96	0x3e4f5a5d	0.20249315
97	0x3d9b1504	0.07572368
98	0xbdbddd3d	-0.092707135
99	0x3cfa669f	0.030566512
100	0xba6fb340	-0.0009143837
101	0xbe142cc6	-0.14470205
102	0xbd80e4f9	-0.06293673
103	0x3d6a95fb	0.05727194
104	0xbe28336e	-0.16425869
105	0xbde6372c	-0.11240992
106	0x3dab0e7b	0.08352371
107	0x3e22f62e	0.15914223
108	0x3d45ce8b	0.048292678
109	0xbcf3f301	-0.02977896
110	0x3e21456a	0.15749136
111	0xbbc152b7	-0.005899753
112	0xbd02a2e8	-0.03189364
113	0x3e2040ce	0.15649721
114	0x3e6ede47	0.2332698
115	0x3dd11191	0.10208429
116	0x3e3116ed	0.17293902
117	0x3de2265b	0.11042472
118	0x3de268c1	0.110551365
119	0x3e45505c	0.19268936
120	0xbd47e4e8	-0.048802286
121	0xbddfb18d	-0.10922537
122	0x3dcd25ae	0.100169525
123	0x3e61f4ef	0.22066091
124	0x3dec7412	0.11545576
125	0x3e727733	0.23678283
126	0xbdcdabda	-0.10042544
127	0xbd1ce026	-0.038299702
128	0x3e2a0cda	0.16606465
129	0x3e58debf	0.21178721
130	0x3debc87c	0.11512849
131	0x3e3875f1	0.18013741
132	0x3de2f580	0.11081982
133	0x3e4eda5a	0.20200482
134	0x3dbda85d	0.09260628
135	0x3d5097a4	0.050925866
136	0x3dab22ed	0.08356271
137	0x3e3341c0	0.1750555
138	0x3a955426	0.0011392876
139	0x3d6f2d7a	0.05839298
140	0xbd9abafb	-0.07555195
141	0x3db3efb6	0.087859556
142	0x3e3d5bc5	0.18492039
143	0xbe20d0a0	-0.15704584
144	0x3c6349db	0.013872589
145	0x3e091792	0.13387898
146	0x3e47bfe8	0.195068
147	0xbd1d6786	-0.038428806
148	0x3b988667	0.004654694
149	0x3d43ed44	0.047833696
150	0xbe11b065	-0.14227445
151	0x3e5514a7	0.2080866
152	0x3dd12c0f	0.10213482
153	0x3e1a70ac	0.15082043
154	0xbe03b249	-0.12860979
155	0xbca4f78d	-0.020137573
156	0x3c56ab12	0.01310231
157	0x3dad7a4f	0.08470594
158	0xbc8ca206	-0.017167103
159	0xbd39c0b5	-0.045349795
160	0x3e300073	0.17187671
161	0x3be0ec7c	0.0068641286
162	0x3d9e3c77	0.077263765
163	0x3d967c95	0.07347981
164	0xbddfb7b8	-0.109237134
165	0x3e272c6a	0.16325536
166	0x3d281395	0.0410343
167	0xbe27ecaf	-0.16398881
168	0xbd7bb720	-0.06145394
169	0xbc29c7e0	-0.010362595
170	0x3da9f45a	0.082985595
171	0x3da57b78	0.080801904
172	0x3cfcc9e3	0.030857986
173	0x3cb8095b	0.022465399
174	0x3c1d01f4	0.009582985
175	0xbc762a2f	-0.015024706
176	0xbd2c8656	-0.0421203
177	0xbdfb774d	-0.12278614
178	0xbe402934	-0.18765718
179	0x3df9c3ee	0.12195574
180	0x3daddf21	0.08489824
181	0x3c200d07	0.009768731
182	0xbe2c0036	-0.16796955
183	0x3d0d93d9	0.034564827
184	0xbe0affd6	-0.13574156
185	0xbcdddfa5	-0.027084181
186	0xbdac1a74	-0.08403483
187	0xbe33364e	-0.17501184
188	0xbc293af0	-0.010328993
189	0x3e0d94dc	0.13826317
190	0xbd92a113	-0.07159629
191	0xbd4fe083	-0.05075122
192	0x3e42399c	0.18967289
193	0xbc25e4b2	-0.010125326
194	0xbdc07ee8	-0.093992054
195	0x3c667f3c	0.014068421
196	0xbe164c4d	-0.14677544
197	0x3d07f79f	0.033195134
198	0x3e709c72	0.23497179
199	0x3d28cfa9	0.041213665
200	0xbe0d495a	-0.13797513
201	0x3e6fa40c	0.23402423
202	0x3e67c560	0.22633886
203	0x3e2126f5	0.15737517
204	0xbad61f2a	-0.0016336192
205	0xbdf1c3ae	-0.11804901
206	0x3ddd4a04	0.10805133
207	0xbdc5afb2	-0.09652652
208	0x3ce055ad	0.027384603
209	0xbe23b1c0	-0.15985775
210	0x3ca3c5bb	0.019991746
211	0x3d60ce95	0.054884512
212	0x3d943d90	0.072383046
213	0x3e1a880a	0.15090957
214	0xbde1e31f	-0.11029648
215	0xbdabb8ea	-0.08384879
216	0x3e59c945	0.21268184
217	0x3e3f303e	0.18670747
218	0x3d5483de	0.05188357
219	0x3d733a3f	0.05938172
220	0xbd9d5979	-0.07683081
221	0x3d7b3b61	0.061335925
222	0xbdfb18fe	-0.12260626
223	0xbe14e3fb	-0.14540093
224	0x3dd46552	0.10370888
225	0xbc786846	-0.0151615795
226	0x3b903e43	0.0044019534
227	0x3d2d466d	0.04230349
228	0x3d3963c6	0.045261167
229	0x3e0b9d2f	0.1363418
230	0xbbad2b62	-0.0052847126
231	0x3e60c821	0.21951343
232	0x3e6bfbdb	0.23045294
233	0x3e0b84ee	0.13624927
234	0x3e22c6c5	0.15896137
235	0xbdee69c3	-0.11641266
236	0x3e4eb441	0.20185949
237	0x3d40b272	0.04704518
238	0xbd4e0c6f	-0.050304826
239	0x3ba04d2a	0.004892011
240	0x3e71422b	0.23560397
241	0x3e6b64df	0.22987698
242	0x3e3598c4	0.17734057
243	0x3ce5fa60	0.02807349
244	0x3e6631d1	0.22479941
245	0x3e552128	0.2081343
246	0x3d4489f8	0.04798314
247	0x3e066df5	0.13127883
248	0x3e661511	0.22468974
249	0x3de4ea63	0.11177518
250	0xbaafb488	-0.0013405243
251	0x3d8f20dd	0.0698869
252	0x3e106d90	0.14104295
253	0x3d2f9ee2	0.04287613
254	0x3e15e6bc	0.146388
255	0xbd875380	-0.06607723

conv1.bias f4 [16]
0	0xbdb326d4	-0.0874764
1	0x3dd17645	0.10227636
2	0xbdc7a4c5	-0.09748224
3	0xbd91a641	-0.071117885
4	0x3b6c5ab6	0.003606481
5	0x3e406d14	0.1879161
6	0xbcc92cd4	-0.024557509
7	0xbdb67af3	-0.089101695
8	0x3dea3237	0.11435359
9	0x3d836fd0	0.06417811
10	0xbe098b5e	-0.1343207
11	0xbb92eb80	-0.00448364
12	0xbe06a14b	-0.13147466
13	0x3d7ed805	0.06221773
14	0xbdb0e204	-0.08636859
15	0x3dcb8e2e	0.09939228

conv2.weight f4 [32, 16, 3, 3]
0	0x3c7ba098	0.015358113
1	0xbd8d39b0	-0.06895769
2	0x3be072d0	0.006849624
3	0x3c76e900	0.0150702
4	0xbd807b06	-0.06273465
5	0x3d17c698	0.037054628
6	0x3cf001a4	0.029297657
7	0x3d9ef9e1	0.07762504
8	0x3bf01af0	0.00732743
9	0xbd217229	-0.039415512
10	0xbb586c16	-0.0033023409
11	0xbc234a84	-0.009966496
12	0xbce575bf	-0.028010247
13	0x3d4b2500	0.049595833
14	0x3d2b31e9	0.041795645
15	0x3c71e20a	0.014763365
16	0xbd571033	-0.052505683
17	0xbd8f65e6	-0.070018575
18	0x3d3c62fb	0.045992833
19	0x3da754bb	0.08170458
20	0x3da63bb3	0.081168555
21	0x3d1d8fec	0.038467333
22	0x3b37844a	0.0028002434
23	0x3e0384fe	0.12843701
24	0x3d154a08	0.036447555
25	0x3cc4d629	0.0240279
26	0x3cfe90d3	0.031074917
27	0x3d73f1d4	0.059556797
28	0x3de1c40d	0.11023722
29	0x3e0254f1	0.12727715
30	0x3d68c216	0.05682572
31	0x3dc897fb	0.09794613
32	0xbce096b6	-0.027415615
33	0x3ca128e5	0.01967282
34	0x3d7849a8	0.06061712
35	0xbd4a31f2	-0.049364038
36	0x3bccf43c	0.006254701
37	0xbc151a9c	-0.009100582
38	0x3dda949c	0.10672876
39	0xba9ca796	-0.00119518
40	0xbd56be83	-0.05242778
41	0x3de1c7e7	0.110244565
42	0x3cec5163	0.028847402
43	0x3d865e92	0.065610066
44	0x3d2f4a6f	0.042795595
45	0xbcbfd145	-0.023415217
46	0x3cd59d07	0.026075853
47	0x3cd2d44b	0.025735995
48	0xbd8fcfd7	-0.07022064
49	0xbddede89	-0.10882289
50	0xbddb56f0	-0.107099414
51	0xbd5e2f74	-0.054244474
52	0xbd6a7737	-0.0572426
53	0xbd1f1650	-0.03883964
54	0x3cda2060	0.026626766
55	0xbd987e30	-0.07445943
56	0x3d9c188f	0.07621872
57	0x3d47c62a	0.04877297
58	0xbd993ff4	-0.07482901
59	0xbbd1de70	-0.0064046904
60	0x3cdc1180	0.026863813
61	0x3d804f4c	0.06265125
62	0x3c83a784	0.016071089
63	0x3b945322	0.0045265118
64	0x3d318c91	0.043346945
65	0xbc987951	-0.018612536
66	0x3c81eb80	0.015859365
67	0x3dac127a	0.084019616
68	0x3cfc380f	0.03078845
69	0x3c7046e8	0.014665343
70	0x3b9053ab	0.0044045052
71	0x3c67dc19	0.014151596
72	0x3d4c6002	0.049896248
73	0x3d02f641	0.031973127
74	0x3d2cdd4c	0.042203233
75	0x3db3bd0c	0.08776292
76	0x3d802208	0.06256491
77	0x3d86fd6c	0.06591305
78	0xbd39f5a4	-0.045400277
79	0xbda1367b	-0.078717194
80	0x3c549b67	0.012976504
81	0xbcd7a48f	-0.026323585
82	0x3d358ea9	0.044325504
83	0xbd573769	-0.052543078
84	0xbd3d1842	-0.046165712
85	0x3c052405	0.0081262635
86	0xbd791087	-0.060806777
87	0x3db3d1bc	0.08780238
88	0x3ce83c24	0.02834899
89	0xbd092b44	-0.033488527
90	0x3d0ed58e	0.03487163
91	0x3d83bd2d	0.06432567
92	0xbd874eae	-0.06606804
93	0xbafd9b40	-0.0019348636
94	0x3d1124ae	0.03543537
95	0xbd8f5570	-0.06998718
96	0x3da34b4b	0.07973345
97	0xbd1c32a6	-0.03813424
98	0x3d39db76	0.04537531
99	0x3be58930	0.0070048794
100	0xbd67e1fe	-0.056612007
101	0xbc6f0258	-0.014587961
102	0x3d9b1e0d	0.07574091
103	0x3d4213da	0.047382213
104	0xbd59202b	-0.053009193
105	0xbd895b58	-0.067068756
106	0x3ca59930	0.020214647
107	0x3ae85840	0.0017726496
108	0x3cf4f7aa	0.029903252
109	0x3d9615ef	0.07328402
110	0xb9d3c9f4	-0.00040395523
111	0xbce2a1f2	-0.027665112
112	0x3d53e95e	0.05173623
113	0x3d591d65	0.05300655
114	0x3d602e19	0.054731462
115	0x3df11eef	0.11773478
116	0xbd3cf27f	-0.0461297
117	0xbd229d74	-0.03970094
118	0x3d1510c1	0.03639293
119	0xbb431b2a	-0.002977083
120	0x3c732b3b	0.01484185
121	0xbd3c149c	-0.045918092
122	0xbc950382	-0.01819015
123	0x3cfffcf2	0.031248543
124	0x3b368559	0.0027850477
125	0xbd3200f4	-0.04345794
126	0x3cfdb3ed	0.030969584
127	0xbc74fec0	-0.014953315
128	0x3cd0de9a	0.02549677
129	0x3d4fa3b0	0.050693214
130	0x3d756c27	0.059917595
131	0xbce166a1	-0.027514758
132	0x3cc3dcc7	0.023908986
133	0x3ddf3c14	0.10900131
134	0x3dbac2b2	0.091191664
135	0xbce2e925	-0.027699063
136	0x3c9c09ab	0.019047579
137	0x3d0a0790	0.03369862
138	0x3da390fc	0.07986638
139	0xbd841a24	-0.064502984
140	0xbd89dde8	-0.067317784
141	0x3c924101	0.017853262
142	0xbd888b45	-0.066671886
143	0xbd60eb92	-0.054912157
144	0x3d1e4980	0.038644314
145	0xbcafb0a6	-0.021446537
146	0x3d9706e1	0.07374359
147	0xbd82e506	-0.06391339
148	0x3ca0fed0	0.019652754
149	0x3cffdbb4	0.031232692
150	0x3cb26660	0.021777332
151	0x3d9f1033	0.07766762
152	0xbda45da8	-0.08025676
153	0x3d681f02	0.056670196
154	0x3d8cc0cd	0.06872711
155	0x3d9aae99	0.07552833
156	0x3b2d95e0	0.0026487038
157	0x3d4055b6	0.04695674
158	0xbd4a6103	-0.049408924
159	0xbc363298	-0.011120461
160	0xbd958bff	-0.07302093
161	0x3cfa23c0	0.030534625
162	0x3c8dc910	0.017307788
163	0xbb80b250	-0.0039275065
164	0x3c895150	0.016762406
165	0xbd7f5583	-0.06233741
166	0xbc84dee4	-0.016219564
167	0xbccd19ec	-0.025036775
168	0x3da4cf9d	0.080474116
169	0x3d33697a	0.043801762
170	0xbd9fdb8f	-0.07805549
171	0xbd9b3504	-0.07578471
172	0xbd8c0e4e	-0.06838666
173	0xbc4bdb38	-0.012442403
174	0x3d25cafe	0.04047679
175	0xbbdba550	-0.0067030564
176	0x3da99fdb	0.08282443
177	0xbd7f744b	-0.062366765
178	0x3da25b1d	0.07927535
179	0xbcb4af10	-0.022056133
180	0x3da3a66d	0.079907276
181	0x3d4c94f6	0.049946748
182	0xbcf01f76	-0.029311877
183	0x3bb90a90	0.005647011
184	0xbd7666b3	-0.060156535
185	0xbcb76e60	-0.022391498
186	0xbc8cbf50	-0.017181069
187	0xbd45d428	-0.04829803
188	0xbd51c48b	-0.05121283
189	0xbd5dfe3b	-0.05419753
190	0xbd9dc296	-0.0770313
191	0xbca33fec	-0.019927941
192	0xbd55e3f8	-0.05221936
193	0x3b73a600	0.00371778
194	0xbd43faae	-0.04784649
195	0xbd946260	-0.07245326
196	0x3cc230e4	0.023704953
197	0x3d89b615	0.067241825
198	0xbd25c033	-0.0404665
199	0x3d1f1fe2	0.038848765
200	0xbd829e0f	-0.063778035
201	0xbd8a2cdc	-0.067468375
202	0x3a3e8280	0.0007267371
203	0xbd281fd3	-0.041045975
204	0x3da4dde7	0.08050137
205	0xbda879cc	-0.08226356
206	0xbd257f70	-0.040404737
207	0xbcdb5156	-0.026772182
208	0xbda49f02	-0.08038141
209	0xbb9a5580	-0.0047098994
210	0x3bdf5650	0.006815709
211	0x3cd8de84	0.026473291
212	0x3d086fa6	0.0333096
213	0xbc7c29c8	-0.015390821
214	0x3c703768	0.014661647
215	0xbd8abd3b	-0.06774374
216	0xbd3ecddb	-0.046583038
217	0x3d9bc647	0.07606178
218	0xbd97633e	-0.07391976
219	0xbd88b4b0	-0.066750884
220	0x3d411f72	0.04714913
221	0xbd8d2346	-0.068914935
222	0x3a7a6c80	0.0009552911
223	0xbd296943	-0.04136015
224	0x3d3b6f22	0.04576028
225	0xbcf53f86	-0.029937517
226	0xbd86b517	-0.06577509
227	0xbcf0c6d6	-0.029391687
228	0x3d511d4e	0.051053338
229	0xbd270b53	-0.040782284
230	0x3ca147f0	0.019687623
231	0xbd965377	-0.073401384
232	0xbc3c0628	-0.011476077
233	0x3d53e512	0.05173213
234	0xbd1ddc86	-0.038540386
235	0xbd6d8d16	-0.05799588
236	0xbd8e8036	-0.06958048
237	0x3d08e066	0.033417128
238	0x3d87dbdb	0.06633731
239	0x3d1e578a	0.038657703
240	0x3be32dd0	0.0069329515
241	0x3c233be8	0.009963013
242	0xbd6f590e	-0.05843454
243	0xbd53f06e	-0.051742963
244	0x3ca6edbc	0.020377032
245	0x3d20f612	0.03929717
246	0x3be3a180	0.0069467425
247	0x3d90f6dd	0.070783354
248	0x3d17ceb6	0.03706237
249	0x3d527b62	0.0513872
250	0xbd7385e0	-0.059453845
251	0x3d1ca486	0.03824284
252	0x3d894161	0.06701923
253	0x3d59142a	0.052997746
254	0x3ce7e1d4	0.028305925
255	0x3c876b74	0.01653073

conv2.bias f4 [32]
0	0xbcfe9000	-0.031074524
1	0xbca67f0c	-0.020324253
2	0x3db13a62	0.08653714
3	0xbdd1210b	-0.102113806
4	0x3cf91264	0.030404277
5	0x3dac4f32	0.08413543
6	0x3d9ff4eb	0.07810386
7	0x3d4bff4e	0.049804024
8	0xbdd26b39	-0.10274357
9	0xbcebfb45	-0.028806338
10	0xbdd781ec	-0.105228275
11	0xbe01c446	-0.12672529
12	0xbd8e7e34	-0.06957665
13	0x3c0731da	0.008251632
14	0x3d6282fa	0.05530069
15	0xbd70294a	-0.058633126
16	0x3bbf746e	0.005842737
17	0xbd8e8820	-0.069595575
18	0x3cec0782	0.028812174
19	0xbdd32092	-0.10308947
20	0x3dc1899c	0.09450075
21	0xbde00a29	-0.10939438
22	0xbd2f0b7b	-0.042735558
23	0xbdbe6747	-0.09297042
24	0x3cb365ea	0.021899182
25	0xbd64808c	-0.055786654
26	0x3da64743	0.08119061
27	0x3e0da686	0.13833055
28	0x3d79904b	0.060928624
29	0xba1270ae	-0.00055862486
30	0xbe01adef	-0.12664007
31	0xbd10d7a9	-0.03536192

conv3.weight f4 [64, 32, 3, 3]
0	0xbd1db012	-0.03849799
1	0xbcfedad4	-0.031110205
2	0x3af12480	0.0018397719
3	0xbd535624	-0.051595822
4	0x3d0ef75e	0.034903876
5	0xbcdb71c8	-0.026787654
6	0x3d5f7079	0.05455062
7	0x3c5cf94c	0.013487171
8	0x3d115057	0.03547701
9	0x3afce460	0.0019294135
10	0xbd455bb9	-0.048183177
11	0x3d5e092b	0.054207962
12	0x3c058abc	0.008150753
13	0x3d54798d	0.051873732
14	0x3c335e34	0.010947753
15	0x3cd9431a	0.026521254
16	0xbc87a3e4	-0.016557641
17	0x3ccca0fe	0.02497911
18	0xbc943c3a	-0.018095125
19	0x3d15519f	0.036454793
20	0xbce9d4ec	-0.028543912
21	0x3c6753d4	0.014119107
22	0xbd09031a	-0.033450224
23	0x3c9c4c7e	0.019079443
24	0x3d48a281	0.0489831
25	0x3cf71f4e	0.030166294
26	0xbcb56abe	-0.022145625
27	0x3c46a5b4	0.012124468
28	0xbcefc4ba	-0.029268611
29	0x3ce17bf6	0.02752493
30	0x3c676414	0.014122982
31	0x39804bb2	0.0002447046
32	0x3cc95f7e	0.024581667
33	0xbc9c40b2	-0.019073818
34	0xbd0a91fa	-0.03383062
35	0x3cc10832	0.023563478
36	0x3cb039c6	0.021511924
37	0x3d604737	0.054755416
38	0x3d33d439	0.043903563
39	0xbad36440	-0.0016127899
40	0xbd629442	-0.05531717
41	0x3d05b019	0.032638643
42	0xbd160bf2	-0.036632486
43	0x3b6e2ef0	0.0036343895
44	0xbd284de7	-0.04108992
45	0x3d377643	0.044790518
46	0x3d20a8a3	0.039223325
47	0xbd310626	-0.043218754
48	0x3d146cb1	0.03623647
49	0x3d6c2e48	0.057661325
50	0xbd57b12e	-0.052659206
51	0xbd462216	-0.04837235
52	0x3d6438d9	0.055718277
53	0xba103340	-0.0005500801
54	0x3943cf00	0.00018673763
55	0xbcec01ea	-0.028809506
56	0x3d1f9b65	0.038966555
57	0x3d12ef0f	0.035872515
58	0x3cc3ffa4	0.02392561
59	0xbd67630f	-0.056490954
60	0xbcb48c08	-0.022039428
61	0xba43ce40	-0.00074693933
62	0xbd025b22	-0.031825192
63	0x3d588a29	0.052866135
64	0x3d135d15	0.03597744
65	0x3d503425	0.05083098
66	0xbd25d372	-0.040484853
67	0x3b409120	0.0029383376
68	0xbd1d7c5b	-0.038448673
69	0x3d6b9d7d	0.05752324
70	0xbd34e023	-0.044159066
71	0xbcde679a	-0.02714901
72	0xbb8a2de8	-0.004216898
73	0xbd1ac6d3	-0.03778727
74	0xbd4a1b41	-0.049342398
75	0x3d6ec389	0.058291946
76	0x3d165626	0.03670325
77	0xbcd314ce	-0.025766756
78	0xbcae82be	-0.021302577
79	0x3cf238a2	0.02956802
80	0xbd1a3ffb	-0.037658673
81	0x3cfe429a	0.031037617
82	0x3c5b738c	0.013394248
83	0xbce93748	-0.028468743
84	0x3b963968	0.00458448
85	0x3dbe0a4d	0.092793085
86	0xbd2b4c8e	-0.041821055
87	0xbb740230	-0.003723275
88	0x3d50df47	0.050994184
89	0xbce97da7	-0.028502299
90	0xbd38f8f2	-0.045159288
91	0xbc8787ae	-0.01654419
92	0xbd6a214d	-0.057160664
93	0x3cf5be42	0.029997949
94	0x3d43a00f	0.047760066
95	0x3c71ee5c	0.014766302
96	0xbd2a30c2	-0.041550405
97	0xbd00ed1c	-0.031476125
98	0x3d22b311	0.039721552
99	0xbd198873	-0.037483644
100	0xbd4e4d4c	-0.050366685
101	0xbd5bb81b	-0.053642374
102	0x3cd6d09a	0.026222516
103	0x3d0e8d45	0.034802694
104	0xbd0cdf1a	-0.034392454
105	0x3cb64f2e	0.022254553
106	0x3d4a46a9	0.049383793
107	0xbd25c45a	-0.04047046
108	0xbd18c9d9	-0.037301872
109	0xbc4689c0	-0.012117803
110	0xbbbb8c20	-0.0057234913
111	0x3cef3f5a	0.029205013
112	0x3b9508f9	0.0045481888
113	0xbd4e019e	-0.05029451
114	0xbd387fc2	-0.045043714
115	0xbaf39e60	-0.0018586628
116	0xbd61bdfb	-0.05511282
117	0x3d1261bb	0.035737734
118	0xbd0295d4	-0.03188117
119	0x3d13fe5b	0.036131244
120	0xbbae2740	-0.0053147376
121	0xbb963ba6	-0.0045847474
122	0x3d698e9d	0.057020772
123	0xbd1841e0	-0.0371722
124	0xbd5eb8e8	-0.05437556
125	0x3d57f089	0.052719627
126	0xbd5c3a71	-0.05376667
127	0xbd4699a0	-0.048486352
128	0x3ccc2006	0.024917614
129	0xbd2586f7	-0.040411916
130	0xbc5e5b84	-0.013571624
131	0x3d58393d	0.05278896
132	0xbcb3e12a	-0.021957953
133	0x3d4d30eb	0.05009548
134	0x3bbc8ef8	0.005754348
135	0x3c9837da	0.01858132
136	0xbc4c83d8	-0.012482606
137	0xbc238694	-0.009980816
138	0xbc0a1434	-0.008427668
139	0x3bee6776	0.007275517
140	0x3d3dd8c1	0.04634929
141	0x3d3320fd	0.043732632
142	0xbcc483ce	-0.02398863
143	0xbd13cbb2	-0.03608293
144	0x3bd4fb38	0.006499674
145	0x3b9f4c88	0.004861418
146	0xbd3a0406	-0.045413993
147	0x3c25e6bc	0.010125812
148	0x3dd15fe1	0.102233656
149	0x3d47f2c7	0.048815515
150	0xbd2a2589	-0.041539703
151	0x3d5bf609	0.053701434
152	0x3d2d17e1	0.0422591
153	0xbd678a26	-0.056528233
154	0x3d459587	0.048238304
155	0x3d6c8f5d	0.05775391
156	0x3d6c7a97	0.0577341
157	0x3cd1d552	0.025614414
158	0xbc9b115c	-0.018929176
159	0x3c640334	0.013916779
160	0xbce1334c	-0.02749028
161	0xbd3994ce	-0.045307927
162	0x3d0fbb93	0.035090994
163	0x3c5d2fa4	0.013500128
164	0xbb25e2f0	-0.0025312267
165	0xbd1fe552	-0.039037056
166	0x3d268d62	0.040662177
167	0x3c03dc6c	0.008048158
168	0x3ceb6d0e	0.028738525
169	0xbca1176a	-0.019664485
170	0x3d50932f	0.050921615
171	0x3b66d9e0	0.0035225078
172	0x3ca5a612	0.02022079
173	0xbd294ae0	-0.041331172
174	0xbd25fa18	-0.04052171
175	0x3dd634ab	0.10459264
176	0xbd630105	-0.055420894
177	0x3d45ee87	0.04832318
178	0x3c525a6c	0.012838941
179	0x3c9d6cd2	0.019216929
180	0x3d0463a5	0.03232159
181	0x3d54ba7f	0.05193567
182	0xbd64d76c	-0.055869505
183	0xbb9e1ed0	-0.0048254505
184	0xbc970d6a	-0.018439014
185	0xbd233848	-0.039848596
186	0x3d4b8bed	0.04969399
187	0xbcc45344	-0.023965485
188	0xbd4c819c	-0.049928293
189	0xbcb121e0	-0.021622598
190	0x3d10727b	0.035265427
191	0xbd1052d4	-0.03523524
192	0x3d28b825	0.04119124
193	0xbaa98f5c	-0.0012936401
194	0x3c2a8474	0.010407556
195	0xbc8e32c2	-0.017358188
196	0x3ce28522	0.027651373
197	0x3cf1a482	0.029497389
198	0xbd6b4f70	-0.057448804
199	0xbcd37a5e	-0.025815185
200	0x3d270433	0.04077549
201	0xbd3b1589	-0.045674834
202	0xbbf28290	-0.007400818
203	0xbb2400f0	-0.0025024973
204	0x3d1c6f9f	0.038192388
205	0x3bb66768	0.005566526
206	0x3d0b8eed	0.03407185
207	0x3d5207ab	0.051276844
208	0xbd4dfcb0	-0.05028981
209	0x3cc06f6a	0.023490626
210	0x3d6b0a5b	0.057382923
211	0x3d398817	0.0452958
212	0xbd6e8418	-0.058231443
213	0xbd54e1ce	-0.051973157
214	0xbbe52958	-0.006993454
215	0x3c904d8a	0.017615099
216	0xbbe14618	-0.006874811
217	0x3cb4f5ea	0.022089917
218	0xbbe0f8a0	-0.006865576
219	0x3c9c9426	0.019113611
220	0xbbcc6164	-0.006237196
221	0x3d5aabab	0.05338637
222	0xbcac3484	-0.021021135
223	0x3c5c2f6c	0.013439041
224	0x3d6b9725	0.05751719
225	0x3d25c61b	0.04047213
226	0x3d4dfbdf	0.05028903
227	0xbcca4bc8	-0.024694338
228	0xbcf01a7b	-0.029309502
229	0x3c31f7bb	0.010862286
230	0xbcfac544	-0.030611642
231	0x3d0e73b5	0.034778316
232	0xbd5143c2	-0.05109001
233	0x3d441745	0.047873754
234	0x3cc74806	0.024326336
235	0xbd14e0c8	-0.03634718
236	0xbd5eff4d	-0.054442693
237	0xbd17e3ee	-0.037082605
238	0xbc3813be	-0.011235176
239	0xbd1f4bd0	-0.03889066
240	0xbc3e25bc	-0.011605676
241	0x3cf72796	0.030170243
242	0xbd6c33c0	-0.05766654
243	0xbd36ae8c	-0.044600055
244	0x3c95e60a	0.018298168
245	0x3a544100	0.0008096844
246	0x3d2f1c89	0.042751823
247	0xbd136c8d	-0.035992194
248	0xbd30f2e9	-0.043200407
249	0xbcb29400	-0.021799088
250	0xb9f8d700	-0.00047462434
251	0x3c9b642e	0.018968668
252	0xbc268b20	-0.010165006
253	0xbd1a4a0e	-0.03766828
254	0x3d117e1f	0.03552067
255	0xbcd246ba	-0.02566849

conv3.bias f4 [64]
0	0x3c506738	0.012719922
1	0x3da4e6f5	0.08051864
2	0xbd014b55	-0.031565983
3	0xb90e1f00	-0.00013553724
4	0xbd06ad9b	-0.032880407
5	0xbd4ddb9b	-0.05025826
6	0x3d90a1b3	0.07062092
7	0xbd5a9c5c	-0.053371772
8	0xbc0a807e	-0.0084534865
9	0x3dd27afe	0.10277365
10	0x3dd025e9	0.10163481
11	0x3dd2b8d3	0.10289159
12	0xbd74ffc5	-0.059814233
13	0xbbe73470	-0.0070558116
14	0x3dcd6c2e	0.10030399
15	0xb9767774	-0.00023504888
16	0x3db939e6	0.090442464
17	0x3d1d3653	0.038381886
18	0xbd097989	-0.03356317
19	0xbc93d935	-0.018047908
20	0xbb8934aa	-0.0041871862
21	0xbd6ec18b	-0.058290046
22	0xbcc46e27	-0.023978306
23	0x3d761a1b	0.06008349
24	0xbd8364a9	-0.06415684
25	0xbd0a7a10	-0.033807814
26	0x3d9f58e0	0.077806234
27	0x3bc9f1b3	0.006162846
28	0x3d341bf3	0.043971967
29	0x3d95e20b	0.07318505
30	0x3dc95983	0.09831526
31	0xbd6dc238	-0.05804655
32	0x3d87dae0	0.06633544
33	0xbd74ea79	-0.059793923
34	0xbb424e40	-0.0029648691
35	0x3d91e12d	0.07123027
36	0xbb981972	-0.004641705
37	0xbd62a622	-0.055334218
38	0x3c2f11ee	0.010685427
39	0xbd4d2ecf	-0.05009347
40	0xbd427700	-0.04747677
41	0xbd5cacd5	-0.053875763
42	0x3db75920	0.08952546
43	0xbd4e1823	-0.050315987
44	0x3d6ff275	0.058580834
45	0xbc11790f	-0.00887896
46	0xbb93cbb3	-0.004510367
47	0x3d8928e9	0.06697256
48	0x3dd34bed	0.10317216
49	0xbc6bf1da	-0.014400924
50	0xbc7847c3	-0.015153828
51	0xbb1f4480	-0.0024302304
52	0xbac93888	-0.0015351931
53	0xbc1015be	-0.008794246
54	0xbccfd8bc	-0.025371902
55	0xbc0c1d14	-0.008551855
56	0x3d8c7eea	0.068601444
57	0xbd4a939d	-0.04945718
58	0xbc0c1318	-0.008549474
59	0xbccabda0	-0.024748623
60	0xbd13c1ea	-0.036073603
61	0xbce509a2	-0.027958695
62	0xbd4012ba	-0.04689286
63	0xbcb3675a	-0.021899868

fc1.weight f4 [128, 64]
0	0xbc89f2d0	-0.016839415
1	0xbd82cec0	-0.06387091
2	0x3dfc5b2e	0.12322079
3	0xbc48f570	-0.012265548
4	0x3d169d54	0.036771134
5	0xbdad2616	-0.0845453
6	0x3db490d4	0.08816686
7	0xbdd4dc8e	-0.1039363
8	0x3d73d608	0.059530288
9	0xbddac294	-0.10681644
10	0xbbe82fe0	-0.0070857853
11	0x3dad12ea	0.08450873
12	0x3d9af102	0.075655
13	0xbd829012	-0.063751355
14	0xbdc91f82	-0.09820463
15	0x3c3e3520	0.011609346
16	0xbd0b0a88	-0.03394559
17	0x3d4d7a64	0.05016555
18	0xbdaa7788	-0.0832358
19	0xbdc7bcf2	-0.09752835
20	0xbd1417f0	-0.03615564
21	0xbde0f25e	-0.10983728
22	0x3dadeed0	0.084928155
23	0x3d8f0506	0.0698338
24	0xbdc2c738	-0.09510654
25	0x3c39ba10	0.011335865
26	0x3d8f709c	0.070039004
27	0xbdb97ce4	-0.09057024
28	0x3d8e1a7c	0.06938645
29	0xbdb07776	-0.08616535
30	0xbdd02894	-0.1016399
31	0xbd1ce574	-0.03830476
32	0x3dc588b0	0.09645212
33	0x3dbab4be	0.09116505
34	0x3de540e6	0.11194019
35	0xbd1d8970	-0.03846115
36	0xbd48c0e4	-0.04901208
37	0x3bf8c240	0.007591516
38	0x3cb81a40	0.022473454
39	0x3df19130	0.117952704
40	0xbd13db24	-0.03609766
41	0x3d88e2e8	0.06683904
42	0xbde81fca	-0.11334188
43	0x3d4786a0	0.048712373
44	0x3cda0d00	0.026617527
45	0xbd12826c	-0.03576891
46	0xbd57d344	-0.052691713
47	0x3de07eb6	0.10961668
48	0x3db4ec94	0.08834186
49	0x3d1dde74	0.038542226
50	0xbd182b70	-0.0371508
51	0x3dad3d48	0.08458954
52	0x3d9a18c0	0.07524252
53	0xbdfba92c	-0.12288126
54	0xbdda9cd0	-0.10674441
55	0xbd718530	-0.058964908
56	0x3dfa5aea	0.12224372
57	0x3dfca352	0.123358384
58	0x3cb91638	0.022593603
59	0x3a859980	0.0010192841
60	0xbd3ec3f8	-0.04657361
61	0x3b578980	0.0032888353
62	0x3d9a6506	0.075388
63	0xbd3fd120	-0.046830297
64	0xbbb17bd8	-0.0054163747
65	0x3d78440e	0.060611777
66	0xbd30c7dc	-0.04315935
67	0xbd46647c	-0.048435673
68	0x3dc44ba0	0.09584737
69	0x3dd25c11	0.102714665
70	0x3c38ec63	0.011286828
71	0xbde95e59	-0.113949485
72	0x3df5dccb	0.120050035
73	0x3e1243bf	0.14283656
74	0x3d9b5223	0.07584026
75	0x3e2aedf6	0.16692337
76	0xbc832382	-0.016008142
77	0x3dcdcb6a	0.10048564
78	0x3e223017	0.15838657
79	0xbd228e58	-0.03968653
80	0xbb64ea95	-0.003492986
81	0x3e03a7b2	0.1285694
82	0xbddc4fcb	-0.10757407
83	0xbda6e6ce	-0.08149491
84	0x3d2eeae1	0.042704467
85	0x3d451beb	0.048122328
86	0xbdb79aea	-0.089650944
87	0x3d65b912	0.0560847
88	0xbd85cc73	-0.06533136
89	0xbdf774eb	-0.12082847
90	0x3e0b1934	0.13583833
91	0xbdb0b0a1	-0.08627439
92	0x3c369262	0.011143299
93	0x3d2252cd	0.039629746
94	0x3dbe6a2e	0.09297596
95	0x3dfeaaa4	0.12434891
96	0xbd0d05ba	-0.03442929
97	0xbd0018f9	-0.031273816
98	0x3d944570	0.07239807
99	0x3e10b3ae	0.14131042
100	0xbd963eae	-0.07336174
101	0x3d3ad05c	0.045608863
102	0x3d9b4c57	0.0758292
103	0xbba1d580	-0.0049387813
104	0xbdd9037e	-0.10596369
105	0x3defcfa4	0.11709526
106	0x3d9d1ccf	0.076715104
107	0x3dad6139	0.084658094
108	0xbda64a94	-0.081196934
109	0xbd4c2ae5	-0.049845595
110	0x3dd4c957	0.10389965
111	0x3c9d5a72	0.019208167
112	0xbd81b0bc	-0.063325375
113	0x3c6d6ad4	0.014490802
114	0xbdefd61e	-0.117107615
115	0xbd8fd8cb	-0.07023772
116	0x3b8e5033	0.0043430566
117	0xbddd95bc	-0.10819575
118	0x3b1e461a	0.002415067
119	0xbdcbc5b8	-0.09949821
120	0xbd3e2014	-0.04641731
121	0x3ddd7962	0.108141676
122	0x3d5765f0	0.05258745
123	0x3d2de160	0.042451262
124	0xbdabb93f	-0.08384942
125	0x3d4588d0	0.048226178
126	0xbd7d57c4	-0.061851278
127	0xbd15525e	-0.036455505
128	0x3de477e1	0.111556776
129	0x3e02d1c6	0.12775335
130	0x3d8cdf82	0.06878568
131	0xbd87bb06	-0.06627469
132	0x3d910c76	0.07082455
133	0xbd48aa0e	-0.0489903
134	0x3e130110	0.14355874
135	0x3ddd8960	0.10817218
136	0xbd7bab43	-0.061442625
137	0x3e171be0	0.14756727
138	0xbdbc87a4	-0.09205559
139	0xbb10d94b	-0.0022102173
140	0xbc397904	-0.011320356
141	0x3ddf30a0	0.10897946
142	0xbd80e555	-0.062937416
143	0x3d88aed5	0.066739716
144	0xbda5fbaa	-0.08104642
145	0x3d1a0b08	0.037608176
146	0xbd6759c3	-0.056482088
147	0xbd281da2	-0.041043885
148	0xbd86e403	-0.065864585
149	0x3d52812a	0.05139271
150	0xbc728e32	-0.01480441
151	0xbdac688d	-0.08418379
152	0xbd3e5077	-0.046463456
153	0x3db059bc	0.086108655
154	0x3e1537b0	0.14572024
155	0xbd169d95	-0.036771376
156	0x3a1c0da4	0.00059529603
157	0x3db4f2a1	0.0883534
158	0xbd8adf53	-0.06780877
159	0xbdb2064e	-0.08692609
160	0x3db289d8	0.08717698
161	0x3dd9508e	0.10611068
162	0xbdd9a148	-0.10626465
163	0x3c03769e	0.008023886
164	0xba25a205	-0.0006318393
165	0xbca87700	-0.020564556
166	0xbd067e2f	-0.03283518
167	0xbb21cac0	-0.0024687499
168	0x3da8a05e	0.082337126
169	0xbdbf5475	-0.09342281
170	0x3dc29e94	0.095029026
171	0xbde3486a	-0.11097796
172	0xbdcf3768	-0.1011799
173	0xbdb06090	-0.08612168
174	0xbdc0865a	-0.094006255
175	0x3d5ba7bf	0.053626772
176	0x3c5ba9a5	0.013407146
177	0xbdac6fd6	-0.084197685
178	0x3dfc55bd	0.12321041
179	0xbdb52df1	-0.08846653
180	0xbd9ee152	-0.0775782
181	0x3cd64dd0	0.02616015
182	0x3c5b1535	0.013371755
183	0x3d28b6bc	0.041189894
184	0xbbf8f408	-0.00759745
185	0x3dabaa7c	0.08382127
186	0xbdd9873a	-0.106214955
187	0x3df791c8	0.120883524
188	0xbd7feba5	-0.062480588
189	0x3cf53050	0.029930264
190	0xbcdbe448	-0.026842251
191	0xbb481cf5	-0.0030534838
192	0x3dd071fa	0.10177989
193	0xbe375cea	-0.17906538
194	0x3e19e4ea	0.1502873
195	0xbd4e4f74	-0.05036874
196	0x3c01c1b0	0.007919714
197	0x3dff5067	0.124665074
198	0x3d82fe8d	0.06396208
199	0x3dac5fc4	0.08416703
200	0xbd4b62a8	-0.049654633
201	0xbdc7506b	-0.097321354
202	0xbe30c4f4	-0.17262632
203	0xbe03747b	-0.12837403
204	0xbd3ffa5d	-0.046869624
205	0x3c5e6cec	0.013575774
206	0xbe139861	-0.14413597
207	0xbd46124c	-0.048357293
208	0xbe271c33	-0.16319351
209	0xbd213ccd	-0.039364625
210	0x3e2adc22	0.16685537
211	0xbb8691a0	-0.0041067153
212	0x3ddcca02	0.107807174
213	0x3e22c14e	0.15894052
214	0x3d8c2070	0.068421245
215	0x3d435e5f	0.04769742
216	0x3db2615c	0.08709976
217	0xbd0e7a56	-0.034784637
218	0x3b2eab03	0.0026652224
219	0xbd69c5c5	-0.057073373
220	0xbdafcc1b	-0.08583852
221	0x3d1f6919	0.03891859
222	0x3c5db500	0.013531923
223	0xbd408128	-0.046998173
224	0xbe317869	-0.17331089
225	0x3d620077	0.055176225
226	0x3dbbf5a4	0.091777116
227	0x3d58a773	0.052894067
228	0x3d89501d	0.067047335
229	0xbdcea3b2	-0.10089816
230	0x3df03ed1	0.11730731
231	0xbd3c3f10	-0.04595858
232	0xbc0a3fe0	-0.008438081
233	0x3e0a786d	0.13522501
234	0xbdb8e80e	-0.09028636
235	0x3d18eeb2	0.037337013
236	0xbd9336cf	-0.07188188
237	0x3e206291	0.156626
238	0x3e1ac000	0.15112305
239	0xbdd3d8d9	-0.10344095
240	0xbda5a7ff	-0.08088683
241	0x3e249225	0.16071375
242	0x3e07a9a4	0.13248307
243	0xbc01d3f3	-0.007924068
244	0x3c14f70b	0.009092103
245	0xbd4e40a0	-0.0503546
246	0xbd760692	-0.06006486
247	0xbcea0070	-0.028564662
248	0x3d7e0c77	0.062023606
249	0x3d32dfa8	0.043670326
250	0xbdeb3ad2	-0.114858285
251	0x3de70a0b	0.112812124
252	0x3bbc188d	0.0057402314
253	0xbdeb846e	-0.11499868
254	0x3d55fab1	0.05224103
255	0xbd9188ba	-0.07106157

fc1.bias f4 [128]
0	0xbde78ca8	-0.11306125
1	0x3dcbcffe	0.09951781
2	0x3dadeb85	0.084921874
3	0x3cd0567f	0.02543187
4	0xbdf0144c	-0.11722621
5	0xbdfdaa54	-0.12386003
6	0xbd506138	-0.050873965
7	0xbcf14210	-0.029450446
8	0x3dd6da97	0.104909115
9	0xbd4fb854	-0.0507129
10	0x3d80046a	0.06250842
11	0x3e0f13c5	0.13972385
12	0x3e00e0b8	0.12585723
13	0xbc737603	-0.014859679
14	0x3ccb7daa	0.024840195
15	0x3ccb829b	0.024842551
16	0x3e186315	0.14881547
17	0x3d9be138	0.076113164
18	0x3c0a9734	0.008458901
19	0x3d0904db	0.033451896
20	0xbdc5fc12	-0.09667219
21	0xbbf8a162	-0.0075875977
22	0x3d522838	0.051307887
23	0x3d4f50e7	0.050614264
24	0xbc34cb74	-0.011034835
25	0x3d052c73	0.032513093
26	0x3d899f71	0.06719864
27	0x3df71017	0.12063616
28	0xbdb054e1	-0.08609939
29	0xbdc4e0de	-0.096132025
30	0x3ddee09f	0.10882687
31	0xbcee0397	-0.029054446
32	0x3d5d57c6	0.054038785
33	0x3e0f685c	0.14004654
34	0xbd99b172	-0.07504548
35	0xbde9087c	-0.113785714
36	0xbd636164	-0.0555128
37	0xbd6444f7	-0.055729833
38	0x3dc8a389	0.09796817
39	0x3cf7e98c	0.030262731
40	0x3e0bb1b0	0.13642001
41	0xbdf51e3b	-0.11968657
42	0xbcdb92a0	-0.026803315
43	0xbc92340a	-0.01784708
44	0xbda25400	-0.07926178
45	0x3e00df73	0.12585239
46	0x3c15496c	0.009111743
47	0xbd346e93	-0.044050764
48	0xbd23b5eb	-0.039968412
49	0x3d939f6f	0.07208144
50	0xbdc3f71d	-0.095686175
51	0xbd860225	-0.06543378
52	0xbe0f80ca	-0.14013973
53	0xbdb291f2	-0.08719243
54	0x3dc24599	0.09485931
55	0xbc8b0398	-0.016969487
56	0xbd7cf43c	-0.061756358
57	0xbd845b6a	-0.06462748
58	0x3de00e4a	0.109402254
59	0x3e05d369	0.13068928
60	0x3e01a194	0.12659293
61	0xbde53782	-0.11192228
62	0xbe05fa32	-0.13083723
63	0x3e03c2db	0.128673
64	0x3d6cfbba	0.057857253
65	0xbdf02fff	-0.117279045
66	0xbd877e82	-0.06615926
67	0x3b917acf	0.0044396888
68	0xbd85ee24	-0.06539562
69	0x3e2c16b4	0.16805536
70	0x3c3637e4	0.011121724
71	0x3d2c04a7	0.041996624
72	0x3d65fd58	0.05614981
73	0x3d30dc5c	0.0431789
74	0xbd36e54c	-0.04465227
75	0xbc9a3c18	-0.018827483
76	0xbdcbf16a	-0.099581555
77	0xbdeaaec4	-0.11459115
78	0xbda7b095	-0.08187977
79	0xbdc69e38	-0.096981466
80	0x3dec0f32	0.11526336
81	0x3dc1c660	0.09461665
82	0x3d88e137	0.06683581
83	0xbd8db324	-0.06918934
84	0x3c1efc75	0.009703745
85	0x3dffa24a	0.12482126
86	0xbdc263ac	-0.09491667
87	0x3d931395	0.07181469
88	0xbd3d01d2	-0.046144314
89	0x3dcda258	0.1004073
90	0xbda8825c	-0.08227989
91	0xbd16f588	-0.03685525
92	0xbd617675	-0.05504461
93	0x3e2143b8	0.15748489
94	0x3d971566	0.07377128
95	0xbda8a7e7	-0.0823515
96	0xbdfc9316	-0.12332742
97	0x3cb42b86	0.02199341
98	0xbdb99d4e	-0.090632066
99	0xbde6fff2	-0.112792864
100	0xbdaa3be0	-0.083122015
101	0x3ddb5321	0.10709215
102	0x3e2efdcf	0.17089008
103	0xbc7387ee	-0.014863951
104	0x3dc6a87f	0.09700107
105	0xbb881a0f	-0.004153497
106	0x3e08c301	0.13355638
107	0xbdbd457c	-0.09241769
108	0x3e210df5	0.1572798
109	0x3decb0c2	0.115571514
110	0xbda0bac1	-0.078481205
111	0x3e101269	0.14069523
112	0x3cb91f0c	0.022597812
113	0x3c934bb3	0.017980432
114	0xbcff5c48	-0.031171933
115	0xbdc4e32c	-0.09613642
116	0xbb7677ad	-0.0037607953
117	0xbc7d2cb0	-0.015452549
118	0xbd81e3ef	-0.06342303
119	0x3d9c6a67	0.07637482
120	0xbcbf4261	-0.023347082
121	0xbc59436f	-0.013260706
122	0xbde52508	-0.11188704
123	0xbde5769a	-0.11204262
124	0xbcc2035f	-0.023683248
125	0x3d877228	0.066135705
126	0x3c651ccc	0.0139839165
127	0x3d346372	0.04404015

fc2.weight f4 [2, 128]
0	0xbd8ee1de	-0.069766745
1	0x3df7a6e9	0.120923825
2	0x3da2b995	0.07945553
3	0xbde99c13	-0.11406722
4	0x3d8705b9	0.065928884
5	0xbbe12650	-0.0068710223
6	0x3d29b5b2	0.041433044
7	0xbd8e01f0	-0.06933963
8	0x3de7ec47	0.11324363
9	0x3d002726	0.031287335
10	0xbd8835ec	-0.0665091
11	0xbb640c34	-0.0034797313
12	0x3dfd9adb	0.12383052
13	0xbdb3be02	-0.087764755
14	0xbd172728	-0.036902577
15	0xbcbe6f24	-0.023246355
16	0x3e05d0b6	0.13067898
17	0x3dd85457	0.105629615
18	0xbdc6fc14	-0.09716049
19	0x3df83f16	0.12121408
20	0xbd75da0c	-0.0600224
21	0xbdba7968	-0.09105188
22	0xbb31af68	-0.0027112607
23	0xbc46e80d	-0.012140286
24	0xbdebe251	-0.11517776
25	0xbdaf3ce9	-0.085565396
26	0x3df1e20c	0.11810693
27	0x3de49c97	0.1116268
28	0xbc1fb05a	-0.009746635
29	0x3d0f404e	0.034973435
30	0x3b9e4980	0.004830539
31	0x3cf983ed	0.030458415
32	0x3db69a02	0.089160934
33	0x3d5ad69b	0.05342732
34	0x3cfd0628	0.030886725
35	0xbd1e556a	-0.038655676
36	0xbd58d63c	-0.052938685
37	0x3bf1af6c	0.0073756482
38	0x3dabf680	0.083966255
39	0xbe0b2819	-0.13589515
40	0x3d9c1bd2	0.07622494
41	0xbbf26c40	-0.0073981583
42	0xbd99d824	-0.07511929
43	0xbde3dde8	-0.1112631
44	0xbd5c24d2	-0.053746052
45	0xbbdc2e4a	-0.0067193853
46	0x3da8d6da	0.08244105
47	0x3d619bd3	0.055080246
48	0xbd9a7c06	-0.07543187
49	0xbe057096	-0.1303123
50	0x3d2a4e84	0.041578785
51	0x3cc2daa0	0.02378589
52	0xbd21858d	-0.039434005
53	0x3da146c5	0.07874826
54	0x3d39655c	0.04526268
55	0xbd4d27d6	-0.05008682
56	0xbd21b00f	-0.039474543
57	0x3bb0a913	0.005391249
58	0x3dbcf1cf	0.09225809
59	0x3d4586c5	0.04822423
60	0x3dbe6228	0.092960656
61	0xbd10aee2	-0.03532303
62	0x3d964016	0.07336442
63	0x3d0123e4	0.03152837
64	0xbd704cc6	-0.058666967
65	0x3d820497	0.06348532
66	0xbd8c5206	-0.06851582
67	0xbdbb148e	-0.0913478
68	0x3d33be59	0.0438827
69	0x3d2fca2e	0.042917423
70	0xbd3f4846	-0.046699785
71	0xbdad6a5e	-0.084675536
72	0x3d75d7a0	0.06002009
73	0x3da8ab44	0.08235791
74	0x3cc31660	0.02381438
75	0xbca9edac	-0.020743214
76	0xbdfc8314	-0.12329689
77	0xbbe3b9c8	-0.006949637
78	0xbcb0e553	-0.021593725
79	0x3da4d7ad	0.080489494
80	0x3e060fbf	0.13091944
81	0x3d9cc59b	0.07654878
82	0x3dd4e7cd	0.10395775
83	0x3d5bca76	0.05365988
84	0x3d3299b1	0.043603603
85	0x3df7d345	0.12100843
86	0xbdddb597	-0.10825651
87	0x3df7d98e	0.12102042
88	0xbdd4be4b	-0.10387858
89	0x3d169518	0.03676328
90	0x3d91d2a7	0.07120257
91	0x3d281de2	0.041044123
92	0xbc3ce597	-0.011529348
93	0x3d3a2136	0.04544183
94	0x3ddeeb7f	0.10884761
95	0xbca81017	-0.020515485
96	0x3d7672fc	0.06016825
97	0xbd5923a6	-0.053012513
98	0xbce95a26	-0.028485369
99	0x3d94037d	0.07227228
100	0x3d85c877	0.06532376
101	0x3db64b40	0.089010715
102	0x3da44baf	0.08022248
103	0xbc8be002	-0.017074589
104	0x3d831d88	0.06402117
105	0x3ce4900d	0.02790072
106	0x3e0e606d	0.13903971
107	0x3d64dd5a	0.05587516
108	0x3de722c7	0.1128593
109	0xbcbf33ac	-0.023340069
110	0xbc9c0c76	-0.01904891
111	0x3e0421c4	0.12903506
112	0x3cc9ce41	0.024634482
113	0xbd9b9447	-0.07596641
114	0xbd2a4ab2	-0.04157514
115	0xbba2f0b0	-0.00497254
116	0xbdd343d5	-0.10315672
117	0x3b890ab0	0.0041821823
118	0xbd400388	-0.046878368
119	0x3d524b50	0.051341355
120	0x3cc71642	0.024302606
121	0xbbe30dfe	-0.0069291582
122	0xbd737a0c	-0.059442565
123	0xbdce2191	-0.10064996
124	0x3da831ca	0.082126215
125	0xbd2ca4e1	-0.04214943
126	0xbd9577f0	-0.07298267
127	0xbdb7d0a1	-0.0897534
128	0x3cf324b0	0.02968058
129	0xbda96236	-0.082706854
130	0xbc3aea9b	-0.011408473
131	0x3cf5a878	0.029987559
132	0x3c8ddfac	0.01731857
133	0xbce1cb9e	-0.027562913
134	0x3d96d7a7	0.07365351
135	0xbd769018	-0.060196012
136	0xbe0447e3	-0.12918048
137	0x3d3ef3ea	0.046619333
138	0x3dc12df5	0.09432594
139	0xbddde051	-0.108338006
140	0x3c990004	0.018676765
141	0x3d86dacc	0.06584701
142	0x3dc85c95	0.097832836
143	0xbd184670	-0.03717655
144	0xbd433122	-0.04765428
145	0xbbf7b0c1	-0.0075589125
146	0x3d5f15b8	0.054464072
147	0xbd375990	-0.044763148
148	0x3ac1e940	0.0014794245
149	0x3e09cc3f	0.1345682
150	0x3dd3788e	0.10325728
151	0xbd6c60a8	-0.057709366
152	0x3cdf7bcc	0.02728071
153	0x3e09b41c	0.13447613
154	0xbdcebce7	-0.10094624
155	0xbc3b82d2	-0.011444764
156	0x3dc19812	0.09452833
157	0xbd5ecc92	-0.054394312
158	0xbda4dd20	-0.08049989
159	0xbda5c24c	-0.080937
160	0xbdc22a9b	-0.094807826
161	0xbe0790c3	-0.13238816
162	0xbd8ba452	-0.06818451
163	0xbd81c682	-0.063366905
164	0x3e08cc1e	0.13359115
165	0x3dd07b3d	0.10179756
166	0xbd997858	-0.07493657
167	0x3cdd12bf	0.026986478
168	0xbdae9cac	-0.085259765
169	0x3cdeef4e	0.027213719
170	0x3d96b3f5	0.07358543
171	0x3d63fbc0	0.05566001
172	0xbd2a3c97	-0.04156169
173	0xbe0453f8	-0.12922657
174	0xbdbaf2fb	-0.09128376
175	0xbc645022	-0.013935121
176	0x3dd023bc	0.10163066
177	0xbbfd240a	-0.0077252435
178	0x3def7347	0.11691909
179	0x3d992d90	0.074793935
180	0xbd5086cb	-0.0509098
181	0xbcbaef64	-0.022819228
182	0x3c4d0783	0.012513998
183	0x3ca6fe70	0.020384997
184	0xbce5766f	-0.028010575
185	0xbd57f17c	-0.05272053
186	0xbdaee71a	-0.08540173
187	0xbd902096	-0.07037465
188	0xbccd35d5	-0.025050083
189	0xbd3d74ad	-0.04625385
190	0xbd8ae978	-0.06782812
191	0xbdbb6ecf	-0.091519944
192	0x3cbbdaf2	0.02293155
193	0xbd06841a	-0.032840826
194	0x3d923f8b	0.07141026
195	0x3d8634ff	0.06553077
196	0xbb45700d	-0.0030126602
197	0xbd8ada42	-0.067799106
198	0xbd4712ff	-0.0486021
199	0x3b8887e7	0.0041665914
200	0xbdfb1bfd	-0.12261198
201	0xbd8b20b8	-0.0679335
202	0x3cea6968	0.028614715
203	0xbd972fc3	-0.07382157
204	0xbd347076	-0.044052564
205	0x3d336780	0.043799877
206	0x3e023cbd	0.12718482
207	0x3ca61bf8	0.020277008
208	0xbcd90193	-0.026490008
209	0xbdfb065d	-0.12257073
210	0xbd7b0272	-0.06128163
211	0x3daac08d	0.083375074
212	0x3d4c3caf	0.04986256
213	0xbc5314c4	-0.012883369
214	0x3dcc6745	0.099806346
215	0xbdcdaa96	-0.10042302
216	0x3cec1000	0.028816223
217	0xbd8934b3	-0.06699505
218	0xbd442f52	-0.04789669
219	0xbd2f4f67	-0.042800333
220	0x3e00b45a	0.12568799
221	0xbdbd586f	-0.09245383
222	0xbe11be14	-0.14232665
223	0xbd30ca77	-0.043161836
224	0xbd27546b	-0.04085199
225	0x3dc33bf4	0.095329195
226	0xbcf78cd4	-0.03021852
227	0x3c5051a0	0.012714773
228	0x3d3b36da	0.045706607
229	0xbdd76597	-0.105174236
230	0xbdde5414	-0.108558804
231	0xbd81589a	-0.063157275
232	0xbd134595	-0.03595503
233	0xbd57379b	-0.052543264
234	0xbdba5bda	-0.090995505
235	0xbcb9b9da	-0.022671629
236	0xbd011a64	-0.03151931
237	0xbdf657f0	-0.120284915
238	0xba65bd26	-0.0008763842
239	0xbe080681	-0.13283731
240	0x3cd8f2d8	0.026482984
241	0x3ddcea2f	0.107868545
242	0xbd0676c4	-0.032828107
243	0xbbcf0710	-0.0063179806
244	0x3db30484	0.08741096
245	0x3cbdb378	0.023156866
246	0x3d4652ca	0.048418798
247	0xbdaa777d	-0.08323572
248	0x3deed0e8	0.116609395
249	0x3d993de0	0.07482505
250	0xbd5c4414	-0.05377586
251	0x3d8c6984	0.06856063
252	0xbd553f3f	-0.05206227
253	0x3dc80bea	0.097678974
254	0x3d9fc04b	0.07800349
255	0x3cab810c	0.020935558

fc2.bias f4 [2]
0	0xbba0d062	-0.0049076537
1	0xbde6c39d	-0.11267779
